Navigation/model.pt (torch, 29727 bytes, 6 tensors)

fc1.weight f4 [64, 37]
0.016795136 0.01253761 -0.013166357 -0.15348206 -0.12094572 -0.12657748 -0.15087673 0.25341702
0.23156433 -0.06795876 -0.00089560833 0.030823004 -0.2680766 -0.21849775 -0.4015747 -0.1433832
0.13756552 -0.021292081 0.14955822 0.12184574 0.13672934 -0.08429965 0.106502004 0.071666636
-0.09946725 0.014922462 0.1655967 -0.10302228 -0.2544373 0.030043948 0.18920419 0.12758504
-0.3129258 -0.29834813 -0.016649362 -0.07555363 -0.031372685 0.21036476 0.063026875 0.100110635
0.13055031 -0.0435969 0.17650664 -0.24648668 -0.12903245 -0.61273694 -0.9250577 0.07588542
0.039048173 0.031323116 0.08073905 0.06398968 0.12546073 0.08144577 0.061759062 0.03497654
0.03172047 -0.0042823954 -0.09044692 -0.10458113 0.113801874 0.023839226 -0.09895117 0.14227566
0.17260309 0.13876422 0.2369512 0.10980559 0.18105625 0.09727507 0.12049436 0.0628416
0.03296204 0.063303694 0.04456719 -0.011587748 0.24247196 -0.31126502 -0.043059196 -0.17369391
-0.4805446 0.35206208 -0.08250465 -0.0975919 -0.16759737 -0.28345254 0.2490009 -0.29877746
0.08405998 0.076182954 -0.052842207 -0.053168338 0.13180363 0.2273309 -0.21044952 -0.31555575
0.21311517 -0.17670007 -0.5020124 -0.22402002 0.26840264 0.04482458 -0.15988286 -0.048943162
-0.14830728 -0.13096659 -0.04890563 -0.20228809 -0.0033229082 0.15648839 -0.047547214 0.09840822
0.095221974 0.056132916 0.041555256 -0.048327383 -0.0557041 -0.22602718 -0.06882594 0.4085826
0.5358488 0.027389048 0.019836916 -0.023519892 -0.11017125 -0.02314505 0.14008468 -0.052573312
-0.1716409 -0.20681958 -0.37896457 0.110565074 -0.08837476 -0.054362882 0.08100158 0.14101806
0.18186185 -0.09707811 0.10246211 -0.13808806 0.07383984 0.12159511 0.08035932 0.17144576
-0.2891055 -0.2338819 0.08775314 0.006726208 -0.033481088 -0.04847031 -0.15158841 -0.051240478
-0.101932205 0.24386945 -0.15592769 -0.21215817 -0.2271432 -1.3898616 0.031215427 0.014524102
-0.07893 -0.10291755 -0.09662097 -0.09124665 0.06546954 -0.015511166 -0.11485391 0.05211598
-0.093353346 -0.051777866 0.10126484 0.05056722 0.11956575 0.1539839 -0.24702111 0.11620976
0.12577058 -0.5384341 0.17988737 -0.25481692 0.097049944 0.21270928 0.028549703 -0.032758903
0.048640236 0.1322124 -0.2263484 -0.019915676 -0.31889313 -0.27312446 0.12269815 0.03016268
-0.075891964 -0.18560106 -0.8903258 -0.13841167 -0.2174966 0.08206177 -0.10252283 0.022201473
0.020065399 0.1288106 -0.19108494 -0.49745086 -0.40748325 0.10957727 -0.032674383 0.027056852
-0.17954679 -0.08739998 -0.09864164 -0.044689454 0.16348174 -0.29041114 0.036419224 -0.21003656
0.059821073 -0.099470064 0.1071679 0.0326249 0.053792823 0.08903817 -0.053593736 -0.07323469
0.010192257 -0.0495751 -0.17198944 -0.08600124 -0.05256512 0.0833047 -0.19798286 0.19726858
0.08558511 0.16331054 -0.24347487 0.100597695 0.39819098 -0.29428747 -0.12723976 0.100420125
0.11503463 0.029075092 -0.07171564 -0.02497277 0.076930195 -0.16132845 0.19338447 -0.30970672
-0.05825182 0.0975901 -0.107481845 0.013495528 0.0004138914 0.0057087126 -0.06429141 -0.15808284
00000000: f495 893c 8c6a 4d3c b4b7 57bc 672a 1dbe
00000010: 64b2 f7bd 879d 01be 6e7f 1abe e0bf 813e
00000020: 331f 6d3e f62d 8bbd 42c7 6aba 8680 fc3c
00000030: 5641 89be e0bd 5fbe 339b cdbe 0cd3 12be
00000040: fadd 0c3e bb6c aebc ca25 193e 428a f93d
00000050: c702 0c3e 4ba5 acbd b91d da3d f5c5 923d
00000060: 7cb5 cbbd 587d 743c 2e92 293e 58fd d2bd
00000070: 9b45 82be ba1e f63c bebe 413e a7a5 023e
00000080: cf37 a0be 16c1 98be 3e64 88bc ddbb 9abd
00000090: a580 00bd dc69 573e 3c14 813d ce06 cd3d
000000a0: fbae 053e aa92 32bd 28be 343e 0167 7cbe
000000b0: 1521 04be 54dc 1cbf 95d0 6cbf d169 9b3d
000000c0: faf0 1f3d ab4c 003d 845a a53d 050d 833d
000000d0: c778 003e 0acd a63d 12f7 7c3d 8f43 0f3d
000000e0: 53ed 013d 5653 8cbb 3c3c b9bd a22e d6bd
000000f0: f510 e93d 7b4a c33c e9a6 cabd b6b0 113e
00000100: ddbe 303e 3518 0e3e 56a3 723e c1e1 e03d
00000110: cf66 393e 2738 c73d bfc5 f63d 19b3 803d
00000120: 3403 073d 5ea5 813d 168c 363d 8ada 3dbc
00000130: 924a 783e 215e 9fbe d75e 30bd d1dc 31be
00000140: f109 f6be 7b41 b43e 33f8 a8bd 43de c7bd
00000150: a59e 2bbe b120 91be 18fa 7e3e 5cf9 98be
00000160: a427 ac3d cf05 9c3d 1271 58bd 0bc7 59bd
00000170: 88f7 063e 6ec9 683e 1480 57be 8690 a1be
00000180: dd3a 5a3e ddf0 34be e283 00bf 8165 65be
00000190: 126c 893e fb99 373d 55b8 23be a078 48bd
000001a0: dddd 17be 1b1c 06be 4551 48bd 9c24 4fbe
000001b0: 26c5 59bb 7e3e 203e dec0 42bd 408a c93d
000001c0: bd03 c33d a1eb 653d d835 2a3d eff2 45bd
000001d0: fb29 64bd ab73 67be 9df4 8cbd bd31 d13e
000001e0: 632d 093f ff5e e03c 0781 a23c caac c0bc
000001f0: 77a1 e1bd b09a bdbc 5c72 0f3e 1d57 57bd
00000200: a2c2 2fbe 83c8 53be a507 c2be f16f e23d
00000210: d3fd b4bd 9dab 5ebd 28e4 a53d 0a67 103e
00000220: fe39 3a3e e3d0 c6bd a8d7 d13d f566 0dbe
00000230: 5839 973d db06 f93d 6d93 a43d 7a8f 2f3e
00000240: a305 94be bd7e 6fbe ebb7 b33d 8667 dc3b
00000250: 7723 09bd ce88 46bd fe39 1bbe 89e1 51bd
00000260: d5c1 d0bd eab8 793e 82ab 1fbe fe3f 59be
00000270: 3a98 68be fce6 b1bf 7fb7 ff3c 80f6 6d3c
00000280: 0da6 a1bd 70c6 d2bd 37e1 c5bd 86df babd
00000290: e514 863d 8c22 7ebc 8738 ebbd 9177 553d
000002a0: 0a30 bfbd 0715 54bd f163 cf3d 931f 4f3d
000002b0: e3de f43d f5ad 1d3e 1af3 7cbe 62ff ed3d
000002c0: 01ca 003e d1d6 09bf 6534 383e 5d77 82be
000002d0: 1fc2 c63d 76d0 593e 11e1 e93c 332e 06bd
000002e0: fc3a 473d b062 073e e0c7 67be 3326 a3bc
000002f0: f645 a3be f8d6 8bbe 2b49 fb3d ba17 f73c
00000300: 3f6d 9bbd 340e 3ebe 64ec 63bf cabb 0dbe
00000310: 6eb7 5ebe 0010 a83d 7df7 d1bd dddf b53c
00000320: 3160 a43c ede6 033e c5ab 43be e1b1 febe
00000330: a5a1 d0be 0c6a e03d 93d5 05bd 55a6 dd3c
00000340: 1ddb 37be c3fe b2bd a104 cabd 4a0c 37bd
00000350: c267 273e c5b0 94be 532c 153d d313 57be
00000360: f106 753d f6b6 cbbd d87a db3d b0a1 053d
00000370: dd55 5c3d a559 b63d 1b85 5bbd 12fc 95bd
00000380: 6dfd 263c 430f 4bbd 001e 30be 6b21 b0bd
00000390: 864e 57bd a89b aa3d 05bc 4abe c600 4a3e
000003a0: 3f47 af3d e13a 273e 7a51 79be 2a06 ce3d
000003b0: b0df cb3e d9ac 96be 244b 02be 11a9 cd3d
000003c0: 4797 eb3d e32e ee3c a6df 92bd b293 ccbc
000003d0: 948d 9d3d 4933 25be 9406 463e e191 9ebe
000003e0: 7699 6ebd 51dd c73d 711f dcbd 591c 5d3c
000003f0: 90ff d839 2710 bb3b 37ab 83bd 78e0 21be

fc1.bias f4 [64]
0.1546854 0.0657104 -0.19665854 -0.063669145 0.25017765 -0.101912625 -0.12778385 0.05554144
-0.053447448 -0.20943111 0.14482617 0.16558717 0.11467215 0.133817 -0.1521873 -0.051962838
0.05175109 -0.13990171 -0.001668936 -0.15266739 -0.16527689 0.039636858 0.05615823 -0.17809708
-0.10414204 0.19756417 0.000549733 -0.1564632 0.12369203 0.06152438 0.033312526 -0.24290173
0.1466596 -0.021969022 -0.1752741 -0.018358147 -0.07006691 0.013703103 -0.079724655 -0.09448088
-0.13131033 0.017826503 -0.12416971 0.16913904 -0.026331518 -0.07828666 0.027469365 -0.26203695
-0.12734638 0.012620205 -0.121115096 0.019377265 -0.073357314 -0.115108736 -0.17630605 -0.0038263584
-0.042881783 -0.10351706 -0.021523753 -0.07216065 0.13514595 0.11119914 0.040116545 -6.759694e-05
00000000: d965 1e3e 2d93 863d db60 49be f864 82bd
00000010: 4917 803e 91b7 d0bd c5d9 02be 6c7f 633d
00000020: b6eb 5abd 1c75 56be 504d 143e af8f 293e
00000030: 3bd9 ea3d 5307 093e fdd6 1bbe fcd6 54bd
00000040: f3f8 533d 6542 0fbe 33c0 daba d754 1cbe
00000050: 583e 29be 425a 223d 2c06 663d 155f 36be
00000060: 6c48 d5bd 434e 4a3e f51b 103a e437 20be
00000070: 3f52 fd3d fd00 7c3d b772 083d 3bbb 78be
00000080: ef2d 163e 61f8 b3bc 0e7b 33be d363 96bc
00000090: 3d7f 8fbd fb82 603c ae46 a3bd 317f c1bd
000000a0: 3776 06be e308 923c b04c febd c932 2d3e
000000b0: 32b5 d7bc c254 a0bd 6f07 e13c b529 86be
000000c0: 1767 02be fac4 4e3c 310b f8bd 12bd 9e3c
000000d0: 5c3c 96bd 21be ebbd 9389 34be a4c3 7abb
000000e0: cfa4 2fbd c100 d4bd 9552 b0bc f6c8 93bd
000000f0: b363 0a3e 60bc e33d 3f51 243d d5c2 8db8

fc2.weight f4 [64, 64]
-0.038336013 0.0062989485 0.095308006 0.07329504 -0.11174597 -0.24338484 0.058691133 0.066873156
0.16336711 -0.0049056998 -0.15343639 -0.2840743 0.150821 0.20004725 -0.14960429 -0.3051524
-0.091441736 -0.053791203 0.0262393 0.16514668 0.070295826 -0.48012003 -0.17843144 0.10354042
-0.2368778 -0.012780866 0.23271401 -0.14548156 -0.30814618 0.04050246 0.22079794 -0.063741535
-0.16678117 0.28639838 -0.022329533 0.003697888 -0.11054855 0.00774029 0.22079739 -0.31974107
-0.27074367 0.13821487 -0.24120724 0.07954306 0.51600933 -0.11655099 -0.19383469 -0.13711889
0.013709907 -0.035654917 -0.05349461 -0.16489065 -0.1896475 -0.2803418 -0.09682242 0.19080155
-0.02672498 0.222632 -0.2515602 -0.13909584 -0.031246822 0.045038097 -0.0068877474 -0.12240068
0.112810016 0.12789014 -0.13626917 -0.079648614 0.116737895 0.07065777 -0.058607206 -0.13055554
-0.09766831 0.018444777 -0.009574313 0.16827902 -0.08354977 0.255779 -0.09602756 0.051795483
0.15296344 0.013568392 -0.16543697 -0.23903804 0.009168834 7.887185e-06 0.20770526 -0.024775187
0.11376512 0.023656022 -0.09379928 0.0767032 0.16698289 -0.3261884 0.025937421 -0.19691037
-0.03484668 -0.025756445 -0.03342034 0.14033437 -0.062672846 -0.06369957 -0.14133583 -0.1322635
0.051205765 -0.112282805 -0.06033241 -0.03778783 -0.26034158 -0.068687685 -0.112159744 -0.027122175
-0.08365228 -0.051092356 -0.0736997 0.11020686 -0.09045377 -0.46024105 0.24019727 -0.04083193
-0.04168948 -0.08701031 0.20779513 -0.13465178 -0.17631727 0.11695572 0.05483499 -0.07491142
-0.09211893 0.017555745 0.038640007 -0.20865226 -0.111589365 -0.10129734 -0.035705727 0.014353179
0.22893134 0.03507863 -0.07430925 -0.0141141405 0.058645435 0.066897005 -0.13235334 0.033513736
-0.15722029 -0.3040273 0.13711394 -0.035156928 -0.36410293 0.100211814 0.043333925 0.009420954
0.035182133 0.12690248 -0.12099934 0.14404495 -0.35375112 0.13897039 -0.00043045843 -0.1656505
-0.24682851 -0.0043163365 0.028894812 -0.007982761 0.113336 -0.03270291 0.072862156 -0.12286826
0.028675344 0.07706158 -0.14235754 -0.35828128 0.055953484 0.17707711 -0.098644905 -0.31344077
-0.11069243 -0.09976743 -0.11260175 0.029500535 -0.58693534 0.03009019 -0.25137022 -0.5450254
-0.21791694 -0.21262272 0.07596594 0.3478069 -0.06428714 0.003123565 0.037554782 0.02214263
0.034879275 -0.102214605 -0.029337121 -0.29677922 -0.12756374 0.0058955383 -0.11353051 0.09852931
-0.20417148 -0.09686334 0.4154199 -0.018057203 -0.117732204 0.15851378 -0.11812613 -0.021104133
-0.017556546 0.26722753 -0.041950293 -0.17274989 -0.007804896 0.01461219 -0.2770492 -0.06503284
-0.061868295 -0.13368273 0.027006803 -0.10349041 0.104045585 -0.55866855 -0.0060959663 -0.14116828
-0.11679531 0.27477968 0.09905652 0.037858915 -0.18509719 0.000606943 0.27652234 -0.045348767
0.13717914 0.25153553 -0.31994066 -0.022656523 0.44406787 -0.068767205 0.014692319 0.19171552
0.0362798 -0.09071114 -0.3849329 -0.023242373 0.003585526 -0.08138586 -0.08314902 -0.08355119
-0.055001635 -0.1064768 -0.09826742 0.21503347 0.026551737 -0.17235687 0.011547559 0.017840635
00000000: 3906 1dbd 6967 ce3b d830 c33d b61b 963d
00000010: 12db e4bd e039 79be 1d66 703d cbf4 883d
00000020: b549 273e febf a0bb 6e1e 1dbe 3072 91be
00000030: d270 1a3e 30d9 4c3e de31 19be ef3c 9cbe
00000040: ce45 bbbd 2a54 5cbd cdf3 d63c 361c 293e
00000050: 42f7 8f3d 4bd2 f5be bbb6 36be 000d d43d
00000060: 1890 72be d666 51bc 954c 6e3e 1ef9 14be
00000070: 56c5 9dbe e8e5 253d db18 623e ec8a 82bd
00000080: afc8 2abe cfa2 923e 6dec b6bc 4458 723b
00000090: 4767 e2bd 42a2 fd3b b618 623e 1ab5 a3be
000000a0: ea9e 8abe 3388 0d3e 08ff 76be 79e7 a23d
000000b0: 3019 043f 49b2 eebd 9a7c 46be e568 0cbe
000000c0: 859f 603c e40a 12bd 2a1d 5bbd 18d9 28be
000000d0: f432 42be f688 8fbe d54a c6bd 7b61 433e
000000e0: 58ee dabc a5f9 633e 80cc 80be 246f 0ebe
000000f0: 56f9 ffbc de79 383d 9db2 e1bb 35ad fabd
00000100: f008 e73d a2f5 023e 258a 0bbe d01e a3bd
00000110: 4714 ef3d 05b5 903d 1c0e 70bd 5ab0 05be
00000120: 5306 c8bd 8019 973c 94dd 1cbc 5651 2c3e
00000130: 241c abbd 77f5 823e 19aa c4bd 8027 543d
00000140: 73a2 1c3e f64d 5e3c 4f68 29be 63c6 74be
00000150: e138 163c 3453 0437 b0b0 543e 55f5 cabc
00000160: b0fd e83d 46ca c13c d619 c0bd 9116 9d3d
00000170: 90fd 2a3e 2a02 a7be b77a d43c dfa2 49be
00000180: 64bb 0ebd 2eff d2bc c4e3 08bd d0b3 0f3e
00000190: 9f5a 80bd ec74 82bd 57ba 10be 1570 07be
000001a0: 23bd 513d 87f4 e5bd 1e1f 77bd 69c7 1abd
000001b0: 7e4b 85be 21ac 8cbd 02b4 e5bd 532f debc
000001c0: e351 abbd 3846 51bd deef 96bd 22b4 e13d
000001d0: d33f b9bd b7a4 ebbe 46f6 753e 623f 27bd
000001e0: 97c2 2abd 7632 b2bd 3fc8 543e 28e2 09be
000001f0: 848c 34be 7b86 ef3d a89a 603d 296b 99bd
00000200: d9a8 bcbd 11d1 8f3c fc44 1e3d f0a8 55be
00000210: f788 e4bd fb74 cfbd 2b40 12bd 9929 6b3c
00000220: fa6c 6a3e 9cae 0f3d 732f 98bd ff3e 67bc
00000230: 3236 703d 4c01 893d a287 07be b345 093d
00000240: 5bfe 20be 77a9 9bbe 9967 0c3e b600 10bd
00000250: b36b babe da3b cd3d ea7e 313d 585a 1a3c
00000260: 241b 103d b9f2 013e 81ce f7bd 8580 133e
00000270: de1e b5be 414e 0e3e 27af e1b9 49a0 29be
00000280: 9dc0 7cbe 0e70 8dbb d0b4 ec3c 20ca 02bc
00000290: b41c e83d 7df3 05bd c138 953d 5ba2 fbbd
000002a0: 8ee8 ea3c 76d2 9d3d 2dc6 11be a570 b7be
000002b0: 7b2f 653d b453 353e 5706 cabd 4f7b a0be
000002c0: b6b2 e2bd de52 ccbd bf9b e6bd 1bab f13c
000002d0: 6541 16bf b47f f63c 99b3 80be c986 0bbf
000002e0: 9e25 5fbe c5b9 59be 0894 9b3d bf13 b23e
000002f0: faa8 83bd bab4 4c3b 0bd3 193d 7664 b53c
00000300: 92dd 0e3d e455 d1bd 6754 f0bc 72f3 97be
00000310: 12a0 02be 5c2f c13b af82 e8bd bcc9 c93d
00000320: 5412 51be 4960 c6bd ebb1 d43e b3ec 93bc
00000330: 951d f1bd 7051 223e 1dec f1bd 93e2 acbc
00000340: bfd2 8fbc 0cd2 883e 12d4 2bbd 59e5 30be
00000350: 37c0 ffbb f867 6f3c 65d9 8dbe f02f 85bd
00000360: 9c69 7dbd 20e4 08be 5f3d dd3c c8f2 d3bd
00000370: da15 d53d e704 0fbf acc0 c7bb 6b8e 10be
00000380: 6132 efbd ecaf 8c3e 25de ca3d f311 1b3d
00000390: 1e8a 3dbe 411b 1f3a 5694 8d3e a1bf 39bd
000003a0: b078 0c3e 44c9 803e 43cf a3be 2c9a b9bc
000003b0: dd5c e33e d2d5 8cbd 0db8 703c 1351 443e
000003c0: 219a 143d c3c6 b9bd ed15 c5be ca66 bebc
000003d0: 25fb 6a3b a1ad a6bd 094a aabd e31c abbd
000003e0: 6549 61bd 8210 dabd 6e40 c9bd bc31 5c3e
000003f0: 0783 d93c 527e 30be f931 3d3c 8626 923c

fc2.bias f4 [64]
0.030268295 0.041574918 0.08289358 0.11265626 0.28527138 -0.20123024 -0.08732545 0.09317616
0.2448624 0.49505815 -0.04563152 0.22372627 0.06771541 -0.03219856 -0.11716482 -0.03624837
0.034326885 0.1662707 -0.027258685 0.06655659 0.18498808 0.44198897 -0.11957585 -0.1378446
-0.08841299 -0.024220282 0.03930602 -0.10969404 -0.07187362 0.21448259 0.034141026 -0.06067184
0.0038459364 0.2285788 0.09636528 -0.036746655 -0.10900831 -0.10710717 0.21627244 0.07722121
-0.16462071 0.53951174 0.22810423 -0.015158804 0.14016026 -0.12729913 -0.036276303 -0.09175016
0.12416661 -0.15899761 -0.15933558 0.33698413 0.010922159 -0.1321721 0.118264176 -0.037447404
-0.2077685 -0.18022308 0.14146525 -0.027636847 0.01997295 0.2895582 0.004616375 -0.14188917
00000000: 37f5 f73c 764a 2a3d 1cc4 a93d 53b8 e63d
00000010: 170f 923e 4d0f 4ebe afd7 b2bd 24d3 be3d
00000020: 36bd 7a3e 4378 fd3e 1ee8 3abd 8018 653e
00000030: 60ae 8a3d a3e2 03bd 1cf4 efbd 2c79 14bd
00000040: 599a 0c3d de42 2a3e 9b4d dfbc d24e 883d
00000050: 846d 3d3e 614c e23e 2fe4 f4bd 2327 0dbe
00000060: df11 b5bd 9d69 c6bc 59ff 203d 45a7 e0bd
00000070: 7a32 93bd 53a1 5b3e 76d7 0b3d 0983 78bd
00000080: 1b0c 7c3b 9010 6a3e 295b c53d a983 16bd
00000090: c03f dfbd 015b dbbd 8676 5d3e 2726 9e3d
000000a0: 5592 28be 711d 0a3f 2894 693e a25c 78bc
000000b0: 2c86 0f3e b45a 02be 7696 14bd 82e7 bbbd
000000c0: 104b fe3d 45d0 22be de28 23be 2f89 ac3e
000000d0: dbf2 323c 1f58 07be 7d34 f23d 7362 19bd
000000e0: 44c1 54be 668c 38be 44dc 103e ab66 e2bc
000000f0: 509e a33c f940 943e f644 973b 654b 11be

fc3.weight f4 [4, 64]
0.02854284 0.19546647 -0.052086864 0.1870708 0.10232647 -0.08186351 0.44982147 0.043798063
0.12298318 0.14051144 -0.10835969 0.15505058 0.12151001 0.10811986 -0.029725892 -0.54038125
0.1839 0.30460373 -0.088642515 0.118693426 0.3204855 0.26137462 0.0002501291 -0.13568684
0.31186372 -0.1769735 -0.031564984 0.2754513 0.112374894 0.11935917 -0.19484429 0.1773054
0.4446564 0.12977909 0.06550005 0.17090456 0.3049832 -0.121922985 0.060467746 0.06898749
0.06072293 0.14474583 0.112501696 0.050039236 0.16432564 -0.022252502 0.050147437 0.3031944
0.07906178 0.18394719 -0.19313815 0.16162466 0.29444715 -0.36863035 0.06793577 -0.079891026
-0.11875358 0.09725103 0.19261341 0.016784063 0.091690525 0.17879939 -0.014765843 0.08795842
0.5421773 0.18998435 0.18014804 0.26800835 0.20320979 -0.043776516 0.11053218 -0.027044833
0.112989105 0.17381048 0.026047645 -0.009865629 0.0833723 0.31888098 0.06890199 0.015183289
-0.005528644 0.1539095 -0.50442773 0.26153854 0.20409778 0.23010728 -0.00018328053 0.11254243
0.34435952 0.07077544 0.051104203 0.099663556 -0.27685836 0.10031341 -0.18621413 0.17565939
0.010607105 0.02713609 0.14056699 0.08370304 0.2681266 -0.044071946 0.04562967 0.014184145
0.114712685 0.20355129 0.15847169 0.23742059 0.13999052 -0.14399454 0.3078469 -0.2275173
0.029898293 0.27138546 -0.18093754 0.13032703 0.15667269 -0.052482612 0.17881462 0.036551725
-0.10283129 -0.14362314 0.15209599 -0.24678548 -0.1319134 0.086689204 -0.08429605 0.046071813
0.20418276 0.14176455 0.2640707 0.52445275 0.4030924 0.08346463 0.3402469 -0.08475301
0.041811544 0.16128848 0.08793326 0.30584893 0.3009357 -0.26660034 -0.22738831 -0.0033710164
0.30880123 0.31522945 -0.012050745 -0.0055517736 0.050866302 0.2187136 -0.17564328 -0.1858176
0.10132185 -0.22048192 -0.34596092 -0.3957373 0.50726295 0.2851115 -0.26633027 -0.0025020337
-0.26914486 0.05837239 0.17476825 0.213451 0.1614697 -0.2635999 0.11038553 0.22435963
0.10919415 0.15464987 0.20943509 0.24200761 0.24481212 -0.03980629 0.07952169 0.20316121
0.1948588 0.0032581924 -0.17775534 0.24719274 -0.043628175 -0.35695595 0.14401428 0.24989745
-0.19096987 0.0845975 0.1648033 0.23313497 -0.144192 0.14309455 -0.26262876 -0.015838755
-0.24032097 0.16825613 0.07264819 -0.17254393 0.17471509 -0.26543355 0.042021498 0.19465701
0.14968786 0.21166024 0.101741016 0.08284344 0.29328215 0.19964936 0.4398225 -0.048696876
0.08594331 0.27092248 -0.012426334 0.140989 0.010144556 0.2542121 -0.00085888384 0.16777128
0.497867 0.15261495 0.12831059 0.6541031 -0.08206993 -0.08157729 -0.06994851 -0.11711301
0.49607843 0.04876576 -0.08307726 -0.17445394 -0.2931118 0.106046915 0.12362379 -0.0070640487
-0.12589285 0.26647425 0.20332971 -0.059784435 0.18853879 -0.22462004 0.14790572 -0.11234533
0.13300277 -0.407086 -0.042226724 0.054741394 0.07221558 0.063787445 0.16574536 -0.15623875
-0.16066064 -0.16425404 0.09492097 -0.15224886 -0.10140543 0.10088557 0.038687315 0.004708638
00000000: add2 e93c 5d28 483e 0959 55bd 7d8f 3f3e
00000010: 8a90 d13d 0ea8 a7bd 004f e63e 9965 333d
00000020: 9bde fb3d 3be2 0f3e afeb ddbd 94c5 1e3e
00000030: 3dda f83d f26d dd3d b783 f3bc 6d56 0abf
00000040: 4850 3c3e 05f5 9b3e 358a b5bd 8a15 f33d
00000050: ad16 a43e e5d2 853e c223 8339 7ef1 0abe
00000060: 9aac 9f3e 8b38 35be 494a 01bd f407 8d3e
00000070: cf24 e63d 9572 f43d 4385 47be 8c8f 353e
00000080: 01aa e33e cfe4 043e e424 863d 9b01 2f3e
00000090: c226 9c3e c2b2 f9bd 07ad 773d 5049 8d3d
000000a0: 9bb8 783d 4038 143e 4a67 e63d f1f5 4c3d
000000b0: fb44 283e e14a b6bc 6667 4d3d 4c3c 9b3e
000000c0: 24eb a13d a75c 3c3e 02c6 45be ef80 253e
000000d0: c7c1 963e 1ebd bcbe e921 8b3d e89d a3bd
000000e0: 1435 f3bd 8c2b c73d 733c 453e bb7e 893c
000000f0: 3ec8 bb3d 3017 373e 6fec 71bc 8b23 b43d
00000100: 22cc 0a3f 428b 423e ba78 383e 6438 893e
00000110: 3a16 503e 014f 33bd b25e e23d 208d ddbc
00000120: d566 e73d 60fb 313e df61 d53c 72a3 21bc
00000130: 19bf aa3d 5e44 a33e 7d1c 8d3d 54c3 783c
00000140: a129 b5bb 749a 1d3e 2d22 01bf 61e8 853e
00000150: 02ff 503e 3ea1 6b3e fe2e 40b9 a57c e63d
00000160: e44f b03e b7f2 903d a452 513d 681c cc3d
00000170: 61c0 8dbe 1e71 cd3d ebae 3ebe 0ee0 333e
00000180: 6cc9 2d3c 814c de3c cbf0 0f3e 806c ab3d
00000190: e447 893e c984 34bd 2de6 3a3d 9e64 683c
000001a0: 7cee ea3d c06f 503e 6746 223e 621e 733e
000001b0: ad59 0f3e 4e73 13be 1c9e 9d3e 4cfa 68be
000001c0: 44ed f43c 09f3 8a3e b147 39be 7374 053e
000001d0: ce6e 203e 02f8 56bd 2e1b 373e 43b7 153d
000001e0: 3699 d2bd f211 13be 0dbf 1b3e 55b5 7cbe
000001f0: 4e14 07be 1c8a b13d 68a3 acbd ccb5 3c3d
00000200: 4915 513e ba2a 113e 4634 873e 8942 063f
00000210: 2162 ce3e 81ef aa3d d734 ae3e fc92 adbd
00000220: 9542 2b3d cf28 253e 5a16 b43d 3b98 9c3e
00000230: 3e14 9a3e d77f 88be 7bd8 68be 45ec 5cbb
00000240: 321b 9e3e c165 a13e 7d70 45bc a7eb b5bb
00000250: 2f59 503d 75f6 5f3e d5db 33be f846 3ebe
00000260: d581 cf3d 03c6 61be ca21 b1be 149e cabe
00000270: fcdb 013f 22fa 913e 715c 88be 29f9 23bb
00000280: 5bcd 89be e317 6f3d 73f6 323e e692 5a3e
00000290: 5058 253e 91f6 86be cf11 e23d 88be 653e
000002a0: 2fa1 df3d 895c 1e3e 2776 563e d8d0 773e
000002b0: 07b0 7a3e ec0b 23bd 45dc a23d 7e09 503e
000002c0: 1189 473e 6687 553b 7f05 36be 1820 7d3e
000002d0: 75b3 32bd eec2 b6be 7b78 133e 1ee5 7f3e
000002e0: 9b8d 43be 7441 ad3d 32c2 283e efba 6e3e
000002f0: 11a7 13be 6187 123e 4777 86be 47c0 81bc
00000300: b316 76be 564b 2c3e 93c8 943d 5baf 30be
00000310: 83e8 323e e8e6 87be bc1e 2c3d 2b54 473e
00000320: c647 193e 76bd 583e 985d d03d d2a9 a93d
00000330: 1429 963e e270 4c3e 6a30 e13e 6076 47bd
00000340: 0c03 b03d 5ab6 8a3e d397 4bbc 6c5f 103e
00000350: 5a35 263c 1728 823e b826 61ba 3ccc 2b3e
00000360: 6ce8 fe3e 1847 1c3e da63 033e 4d73 273f
00000370: 4814 a8bd ff11 a7bd 2a41 8fbd f2d8 efbd
00000380: fefd fd3e 9bbe 473d 6924 aabd 0ea4 32be
00000390: c012 96be 202f d93d 782e fd3d 8979 e7bb
000003a0: 0eea 00be 506f 883e aa35 503e 86e0 74bd
000003b0: 5010 413e cc02 66be 9974 173e 4f15 e6bd
000003c0: e131 083e 946d d0be eef5 2cbd 8338 603d
000003d0: c3e5 933d fea2 823d 27b9 293e 0dfd 1fbe
000003e0: 3984 24be 3632 28be ed65 c23d 20e7 1bbe
000003f0: a6ad cfbd 189d ce3d 9776 1e3d eb4a 9a3b

fc3.bias f4 [4]
0.31806314 0.30639416 0.18600439 0.25111136
00000000: 2cd9 a23e b2df 9c3e ef77 3e3e ab91 803e
